GPU is available
===============================================================================================
Layer (type:depth-idx)                        Output Shape              Param #
===============================================================================================
├─Sequential: 1-1                             [-1, 1280, 1, 1]          --
|    └─Sequential: 2-1                        [-1, 1280, 12, 39]        --
|    |    └─Conv2dNormActivation: 3-1         [-1, 32, 188, 621]        (928)
|    |    └─Sequential: 3-2                   [-1, 16, 188, 621]        (1,448)
|    |    └─Sequential: 3-3                   [-1, 24, 94, 311]         (16,714)
|    |    └─Sequential: 3-4                   [-1, 40, 47, 156]         (46,640)
|    |    └─Sequential: 3-5                   [-1, 80, 24, 78]          (242,930)
|    |    └─Sequential: 3-6                   [-1, 112, 24, 78]         (543,148)
|    |    └─Sequential: 3-7                   [-1, 192, 12, 39]         (2,026,348)
|    |    └─Sequential: 3-8                   [-1, 320, 12, 39]         (717,232)
|    |    └─Conv2dNormActivation: 3-9         [-1, 1280, 12, 39]        (412,160)
|    └─AdaptiveAvgPool2d: 2-2                 [-1, 1280, 1, 1]          --
├─Flatten: 1-2                                [-1, 1280]                --
├─Dropout: 1-3                                [-1, 1280]                --
├─Sequential: 1-4                             [-1, 1280, 1, 1]          (recursive)
|    └─Sequential: 2-3                        [-1, 1280, 12, 39]        (recursive)
|    |    └─Conv2dNormActivation: 3-10        [-1, 32, 188, 621]        (recursive)
|    |    └─Sequential: 3-11                  [-1, 16, 188, 621]        (recursive)
|    |    └─Sequential: 3-12                  [-1, 24, 94, 311]         (recursive)
|    |    └─Sequential: 3-13                  [-1, 40, 47, 156]         (recursive)
|    |    └─Sequential: 3-14                  [-1, 80, 24, 78]          (recursive)
|    |    └─Sequential: 3-15                  [-1, 112, 24, 78]         (recursive)
|    |    └─Sequential: 3-16                  [-1, 192, 12, 39]         (recursive)
|    |    └─Sequential: 3-17                  [-1, 320, 12, 39]         (recursive)
|    |    └─Conv2dNormActivation: 3-18        [-1, 1280, 12, 39]        (recursive)
|    └─AdaptiveAvgPool2d: 2-4                 [-1, 1280, 1, 1]          --
├─Flatten: 1-5                                [-1, 1280]                --
├─Dropout: 1-6                                [-1, 1280]                --
├─GRU: 1-7                                    [-1, 1024]                17,313,792
├─Sequential: 1-8                             [-1, 3]                   --
|    └─Linear: 2-5                            [-1, 16]                  16,400
|    └─ReLU: 2-6                              [-1, 16]                  --
|    └─Linear: 2-7                            [-1, 3]                   51
├─Sequential: 1-9                             [-1, 3]                   --
|    └─Linear: 2-8                            [-1, 16]                  16,400
|    └─ReLU: 2-9                              [-1, 16]                  --
|    └─Linear: 2-10                           [-1, 3]                   51
===============================================================================================
Total params: 21,354,242
Trainable params: 17,346,694
Non-trainable params: 4,007,548
Total mult-adds (M): 633.49
===============================================================================================
Input size (MB): 10.68
Forward/backward pass size (MB): 66.15
Params size (MB): 81.46
Estimated Total Size (MB): 158.29
…
